要素识别/baseline/predictor/model_divorce/tag.model_02.npy (npy, 760080 bytes, 1 tensors)

array (column-major) f8 [19, 5000]
000000 1f 77 8f 3a f3 4a ed bf b6 84 cb 91 8c 6e e3 bf
       -0.9153991836317096 -0.6072447631414863
000010 5b 61 05 91 6b c5 86 bf 90 95 a6 07 57 43 a7 bf
       -0.011118736613455018 -0.04543563812630247
000020 c7 35 0d cd 42 b4 aa 3f c3 ec 5b 94 e6 5e ea 3f
       0.052156531840050806 0.8240845582617101
000030 5e 0e 35 27 15 36 d1 bf 6e e6 a9 3d 62 84 b9 bf
       -0.2689259417422586 -0.0996762657686305
000040 9d 4a 59 af 75 72 d8 3f 00 00 00 00 00 00 00 00
       0.3819860660925459 0.0
000050 e7 d6 24 ee b5 c7 c6 bf 43 0f af 80 79 d6 e1 3f
       -0.17796968582268066 0.557430983863448
000060 41 cc 0b 81 e0 4f d2 3f 83 1b 05 3b 5a f9 b4 bf
       0.28612530328900126 -0.08192981663624548
000070 8d 0e a7 0d 63 68 c3 3f 00 00 00 00 00 00 5c 3c
       0.15162313620213688 6.071532165918825e-18
000080 3f 7b 9b 28 30 20 82 bf 1a b8 8a 7a cc 31 5a bf
       -0.008850456465948063 -0.0015987870084859302
000090 dc 9f 77 74 e3 5f e6 3f 14 0c 5f ad aa d9 d6 3f
       0.6992051386596319 0.3570353215292823
0000a0 00 00 00 00 00 00 60 3c 00 00 00 00 00 00 00 00
       6.938893903907228e-18 0.0
0000b0 00 00 00 00 00 00 00 00 00 00 00 00 00 00 24 bc
       0.0 -5.421010862427522e-19
0000c0 86 04 3a b6 4d 41 a5 bf 00 00 00 00 00 00 00 00
       -0.04151385163732706 0.0
0000d0 00 00 00 00 00 00 00 00 00 00 00 00 00 00 00 00
       0.0 0.0
0000e0 00 00 00 00 00 00 00 00 00 00 00 00 00 00 00 00
       0.0 0.0
0000f0 ed e8 14 75 9f 01 bb bf 00 00 00 00 00 00 10 3c
       -0.10549351318778451 2.168404344971009e-19
000100 00 00 00 00 00 00 50 3c 00 00 00 00 00 00 00 00
       3.469446951953614e-18 0.0
000110 00 00 00 00 00 00 00 00 00 00 00 00 00 00 00 00
       0.0 0.0
000120 00 00 00 00 00 00 00 00 5b b2 a6 4e 22 0f c2 bf
       0.0 -0.14108685341251967
000130 0a 47 f8 b4 99 89 cb 3f 18 df 8e 6b 89 f9 e6 bf
       0.21513673149507212 -0.7179610348457315
000140 b4 d8 66 23 8d 33 70 bf 1d 4d be 74 d5 94 99 bf
       -0.003955413171231981 -0.024981818438004944
000150 b1 30 13 88 f1 68 a9 bf 45 44 4a ec a9 dd b5 bf
       -0.049628780232155896 -0.0854135705833566
000160 c0 78 81 3b dd 7b d3 3f 0d 71 f6 60 14 0d c4 3f
       0.3044350701437786 0.15664915785317426
000170 ff 42 4a 60 09 98 dd bf 00 00 00 00 00 00 00 00
       -0.4624045791943416 0.0
000180 30 24 21 8d 64 d3 85 bf d5 c0 e7 8c 19 96 b9 3f
       -0.01065710597699096 0.09994659128256285
000190 00 00 00 00 00 00 30 bc 62 0c 03 6b b1 cf dc 3f
       -8.673617379884035e-19 0.45017657709485637
0001a0 00 00 00 00 00 00 30 bc d3 2e 88 64 63 06 b1 bf
       -8.673617379884035e-19 -0.06650372700112976
0001b0 c4 15 ac 6d d5 77 d1 3f be 72 40 79 c2 58 c8 bf
       0.27293906889130093 -0.19020872993941923
0001c0 04 90 b2 e3 d6 95 cb bf f8 23 7d 32 24 6a d8 bf
       -0.2155102359585045 -0.3814783566527349
0001d0 00 00 00 00 00 00 74 3c 00 00 00 00 00 00 00 00
       1.734723475976807e-17 0.0
0001e0 00 00 00 00 00 00 00 00 00 00 00 00 00 00 00 00
       0.0 0.0
0001f0 ce 87 24 5a 03 40 a7 bf bb 41 b9 54 5f 8c cf bf
       -0.04541025615095827 -0.24647132527253554
000200 00 00 00 00 00 00 00 00 00 00 00 00 00 00 00 00
       0.0 0.0
000210 00 00 00 00 00 00 00 00 da 68 c0 f0 aa 54 8a bf
       0.0 -0.012856803390651473
000220 a9 7a 99 b9 c0 bd e7 3f 00 00 00 00 00 00 10 bc
       0.7419131875029353 -2.168404344971009e-19
000230 dd 59 7b 00 d9 22 cd 3f 00 00 00 00 00 00 00 00
       0.22762596629645673 0.0
000240 00 00 00 00 00 00 40 bc 00 00 00 00 00 00 00 00
       -1.734723475976807e-18 0.0
000250 00 00 00 00 00 00 00 00 95 93 03 97 50 5c cc 3f
       0.0 0.22156722425202405
000260 2b 9f 53 83 4a 07 d0 3f 0b 18 fc 7b bc 07 84 bf
       0.25044501137607494 -0.009780380758012816
000270 00 00 00 00 00 00 00 00 55 fe ec dc 57 36 64 3f
       0.0 0.002467319114117387
000280 00 00 00 00 00 00 00 00 00 00 00 00 00 00 00 00
       0.0 0.0
000290 00 00 00 00 00 00 00 00 00 00 00 00 00 00 00 00
       0.0 0.0
0002a0 00 00 00 00 00 00 00 00 00 00 00 00 00 00 00 00
       0.0 0.0
0002b0 69 43 ec 13 78 b4 bd 3f 21 b0 91 cf 0c 0e e1 bf
       0.11603498922728551 -0.5329650930484641
0002c0 00 00 00 00 00 00 00 00 bb c7 23 ad 76 66 ce 3f
       0.0 0.2375019402894035
0002d0 00 00 00 00 00 00 00 00 00 00 00 00 00 00 00 00
       0.0 0.0
0002e0 00 00 00 00 00 00 00 00 00 00 00 00 00 00 00 00
       0.0 0.0
0002f0 08 a2 d5 e9 af 68 95 bf 84 6f b0 34 9d 43 e1 bf
       -0.02090716232979342 -0.5395036725126237
000300 3a 8b ea ec aa c4 bd bf 00 00 00 00 00 a9 60 bc
       -0.11628216060721011 -7.225191040079182e-18
000310 da a5 8d 39 50 46 c5 3f ce c4 19 f5 44 94 79 bf
       0.1662082940122634 -0.006244916310252436
000320 86 6f fb 90 db cd d5 3f a4 8d 5a 51 05 cf 92 3f
       0.3406895557252415 0.01836784657520031
000330 9b 8d 34 0e c7 a6 c7 bf 71 f7 9b 26 75 a8 d6 3f
       -0.18477714723222224 0.3540318371814158
000340 04 bd 13 05 3c 60 a0 bf 6c 96 d0 e5 bb bf c8 bf
       -0.03198421060539583 -0.1933512565748744
000350 86 fb b2 40 bd ac ea 3f 48 2d 81 59 f8 e5 af bf
       0.8335863364844591 -0.062301407743314885
000360 30 11 17 ed 72 35 cc bf d2 d4 9c b2 6d 92 a9 bf
       -0.22038113190331776 -0.049945285847948676
000370 87 bd 55 5d af d9 d8 3f 7b 0f d1 43 86 1c b0 3f
       0.38828643908251376 0.06293524890594242
000380 f9 a9 c7 f8 3f eb d7 3f 02 59 3d 7c af cd c4 bf
       0.37373351378360514 -0.1625270229948868
000390 b7 36 e8 06 44 16 dd bf 2c f2 3a a5 e1 ac c6 3f
       -0.454483992333603 0.17715092246898345
0003a0 00 00 00 00 00 00 00 00 00 00 00 00 00 00 00 00
       0.0 0.0
0003b0 db cd 41 58 ad 4d cc bf cf 28 95 ea ba d7 7e bf
       -0.22112051782060757 -0.007529955045649752
0003c0 00 00 00 00 00 00 00 00 00 00 00 00 00 00 00 00
       0.0 0.0
0003d0 00 00 00 00 00 00 00 00 00 00 00 00 00 00 00 00
       0.0 0.0
0003e0 00 00 00 00 00 00 60 bc 5f f3 b8 c4 c3 97 de bf
       -6.938893903907228e-18 -0.47801298342874604
0003f0 00 00 00 00 00 00 00 00 f5 11 e6 7b 2b d7 9d bf
       0.0 -0.029141120373894897
000400 2b 76 26 fe 84 7f 73 bf b9 49 e8 9f 0f d1 ea 3f
       -0.004760283949875747 0.8380201457205693
000410 00 00 00 00 00 00 00 00 00 00 00 00 00 00 32 bc
       0.0 -9.75781955236954e-19
000420 00 00 00 00 00 00 40 bc f4 47 ea c5 bc ec d6 3f
       -1.734723475976807e-18 0.35819930389072785
000430 81 91 6a fb 98 28 b4 3f 00 00 00 00 00 00 00 00
       0.07874447000592079 0.0
000440 44 8c f7 3f 95 bd a7 bf 00 00 00 00 00 00 50 bc
       -0.04636827855917905 -3.469446951953614e-18
000450 89 c3 f7 3c bc 27 b3 bf 00 00 00 00 00 00 00 00
       -0.07482506264183376 0.0
000460 00 00 00 00 00 00 00 00 ee f3 1d 81 a6 d5 93 bf
       0.0 -0.01936969912593505
000470 00 00 00 00 00 00 00 00 00 00 00 00 00 00 00 00
       0.0 0.0
000480 16 f7 45 41 bc 24 b9 3f 00 00 00 00 00 00 00 00
       0.09821678727709257 0.0
000490 64 a2 5b 66 02 45 d0 bf 19 1f 5a 03 78 6a ad bf
       -0.2542119979466746 -0.05745291748922749
0004a0 2d b4 88 23 88 5f ca bf 00 00 00 00 00 00 00 00
       -0.20604039893206175 0.0
0004b0 00 00 00 00 00 00 00 00 aa ba 4d 1c d8 67 7b bf
       0.0 -0.006690830404166329
0004c0 62 c2 08 17 88 10 d4 3f 99 6e 20 47 02 35 e0 bf
       0.3135090088790432 -0.506470812720596
0004d0 00 00 00 00 00 00 00 00 da 6b 2c d9 77 04 cf bf
       0.0 -0.24232385734725775
0004e0 1e 73 64 8e 9f 81 8a bf 2b ce f5 82 84 da c1 bf
       -0.012942549260111454 -0.13948112864055537
0004f0 39 66 20 07 f1 38 c5 bf 9f 2d fa 79 70 a5 c7 bf
       -0.16580021713234475 -0.18473630863114196
000500 e3 94 b1 2e c6 35 ed 3f 00 00 00 00 00 00 00 00
       0.9128142272935772 0.0
000510 3f 8b 62 ec 7e a5 ac bf b5 1f 0c 71 b4 75 e1 bf
       -0.05595013270910564 -0.5456182678180911
000520 3c 84 af d4 08 35 99 bf 2b 8b 92 56 f0 19 e1 3f
       -0.02461637304429963 0.5344163599841968
000530 00 00 00 00 00 00 00 00 18 ba 80 27 51 ab 84 bf
       0.0 -0.010092386262923234
000540 00 00 00 00 00 00 30 3c 00 00 00 00 00 00 30 bc
       8.673617379884035e-19 -8.673617379884035e-19
000550 bc 3f 04 6d cc aa d5 3f dc 7f 20 19 9c 5a e3 3f
       0.338549715482255 0.604810761524273
000560 54 41 a6 c0 ee 31 c4 3f 00 00 00 00 00 00 00 00
       0.15777382284842167 0.0
000570 43 73 33 74 dc af bd bf 9c aa 0d 00 f3 0c b7 bf
       -0.11596467816293647 -0.09004133940985998
000580 2f 5a 6b 39 3b 31 bc bf 00 00 00 00 00 00 00 00
       -0.11012621070708727 0.0
000590 00 00 00 00 00 00 58 bc 00 00 00 00 00 00 00 00
       -5.204170427930421e-18 0.0
0005a0 00 00 00 00 00 00 00 00 40 98 21 d5 4a d3 70 bf
       0.0 -0.004107754053711388
0005b0 4e 85 58 c3 04 04 c1 bf 00 00 00 00 00 00 00 00
       -0.13293513811462748 0.0
0005c0 23 91 9d 50 89 47 90 bf d6 04 88 78 3e 8f cb bf
       -0.01589788965738238 -0.21530896077459855
0005d0 c0 9d d5 c1 0b 14 b0 bf 00 00 00 00 00 00 00 00
       -0.06280587656293957 0.0
0005e0 02 23 ee 79 a6 9e b6 bf b7 88 2f 78 55 68 dc 3f
       -0.08835831143199971 0.4438680337608604
0005f0 43 89 e2 43 e6 7b d5 3f ac 77 2e 2d 10 d9 d5 bf
       0.3356872237146897 -0.34137348568207915
000600 00 00 00 00 00 00 00 00 00 00 00 00 00 00 00 00
       0.0 0.0
000610 42 99 2f 23 03 fd 6c bf 5f 52 04 06 b8 fd 95 bf
       -0.00353861439497219 -0.021475673072091413
000620 00 00 00 00 00 00 00 00 00 00 00 00 00 00 00 00
       0.0 0.0
000630 00 00 00 00 00 00 00 00 00 00 00 00 00 00 00 00
       0.0 0.0
000640 00 00 00 00 00 00 28 3c 00 00 00 00 00 00 3c 3c
       6.505213034913027e-19 1.5178830414797062e-18
000650 00 00 00 00 00 00 00 00 00 00 00 00 00 00 00 00
       0.0 0.0
000660 00 00 00 00 00 00 00 00 00 00 00 00 00 00 00 00
       0.0 0.0
000670 00 00 00 00 00 00 00 00 05 7e 8c 49 19 d1 b1 bf
       0.0 -0.06959684415459584
000680 00 00 00 00 00 00 00 00 35 0b 6c 98 55 8e ab bf
       0.0 -0.05382029996510199
000690 e0 83 53 22 c9 84 c8 3f 00 00 00 00 00 00 00 00
       0.19155229736409662 0.0
0006a0 fe ca 34 a1 a1 9a 97 bf 00 00 00 00 00 00 00 00
       -0.02305080934929559 0.0
0006b0 bb f6 c8 ac 0d 6d 52 bf b8 a0 a9 6b f9 ce b8 3f
       -0.0011246331734037624 0.09690817717057854
0006c0 00 00 00 00 00 00 00 00 a9 30 20 5d 9e 5e b6 bf
       0.0 -0.08738126538827608
0006d0 00 00 00 00 00 00 00 00 00 00 00 00 00 00 00 00
       0.0 0.0
0006e0 44 b5 e5 da 7d a9 d5 3f 6a ea b0 3b c8 aa 63 bf
       0.33846994759263205 -0.0024007712177341227
0006f0 e0 61 95 4f 44 95 b3 bf 00 00 00 00 00 00 00 00
       -0.07649638121564051 0.0
000700 98 e6 a9 ca 11 18 75 bf 00 00 00 00 00 00 00 00
       -0.00514990758767344 0.0
000710 00 00 00 00 00 00 00 00 24 16 7b 1d 3f c8 9c bf
       0.0 -0.028107629942289006
000720 5e ce 2d df 7b 15 d2 bf 7f 95 29 88 78 f7 9a 3f
       -0.28256127161805533 0.02633465128964962
000730 00 00 00 00 00 00 00 00 52 ea b2 3b 65 c7 56 bf
       0.0 -0.0013903130155045362
000740 00 00 00 00 00 00 00 00 93 9d e7 68 df b6 af bf
       0.0 -0.06194208293509997
000750 00 00 00 00 00 00 00 00 00 00 00 00 00 00 00 00
       0.0 0.0
000760 00 00 00 00 00 00 24 bc 00 00 00 00 00 00 00 00
       -5.421010862427522e-19 0.0
000770 00 00 00 00 00 00 00 00 11 89 ef e9 38 7c ad 3f
       0.0 0.05758836608562679
000780 dc e4 fa 8f 75 4f 62 bf 5b 2a a0 d6 a7 6d be bf
       -0.0022351547375732816 -0.11886071195491736
000790 00 00 00 00 00 00 00 00 00 00 00 00 00 00 30 3c
       0.0 8.673617379884035e-19
0007a0 33 9f ab d9 5a 1f c6 3f 59 4c 15 eb 12 82 d1 3f
       0.17283187511861228 0.2735640807852114
0007b0 79 2a 27 42 0c 09 6c bf 74 3a 6e 52 ab 4f ec bf
       -0.0034222831174919835 -0.8847252473804716
0007c0 e4 a5 f4 33 98 ef dc 3f 00 00 00 00 00 00 00 00
       0.452123690355249 0.0
0007d0 00 00 00 00 00 00 00 00 84 40 a1 29 62 a5 d1 3f
       0.0 0.2757192045728589
0007e0 56 b9 7e 7c e7 0b e2 3f 00 00 00 00 00 00 00 00
       0.5639531547110817 0.0
0007f0 63 0b 2c bd 54 a4 aa bf 00 00 00 00 00 00 00 00
       -0.0520349961207305 0.0
